Device = NVIDIA A100-PCIE-40GBThe number of trainable parametes is 40055541.NvNet(  (in_conv0): DownSampling(    (conv1): Conv3d(4, 32, kernel_size=(3, 3, 3), stride=(1, 1, 1), padding=(1, 1, 1), bias=False)    (dropout): Dropout3d(p=0.2, inplace=True)  )  (en_block0): EncoderBlock(    (norm1): GroupNorm(8, 32, eps=1e-05, affine=True)    (norm2): GroupNorm(8, 32, eps=1e-05, affine=True)    (actv1): ReLU(inplace=True)    (actv2): ReLU(inplace=True)    (conv1): Conv3d(32, 32, kernel_size=(3, 3, 3), stride=(1, 1, 1), padding=(1, 1, 1))    (conv2): Conv3d(32, 32, kernel_size=(3, 3, 3), stride=(1, 1, 1), padding=(1, 1, 1))  )  (en_down1): DownSampling(    (conv1): Conv3d(32, 64, kernel_size=(3, 3, 3), stride=(2, 2, 2), padding=(1, 1, 1), bias=False)  )  (en_block1_0): EncoderBlock(    (norm1): GroupNorm(8, 64, eps=1e-05, affine=True)    (norm2): GroupNorm(8, 64, eps=1e-05, affine=True)    (actv1): ReLU(inplace=True)    (actv2): ReLU(inplace=True)    (conv1): Conv3d(64, 64, kernel_size=(3, 3, 3), stride=(1, 1, 1), padding=(1, 1, 1))    (conv2): Conv3d(64, 64, kernel_size=(3, 3, 3), stride=(1, 1, 1), padding=(1, 1, 1))  )  (en_block1_1): EncoderBlock(    (norm1): GroupNorm(8, 64, eps=1e-05, affine=True)    (norm2): GroupNorm(8, 64, eps=1e-05, affine=True)    (actv1): ReLU(inplace=True)    (actv2): ReLU(inplace=True)    (conv1): Conv3d(64, 64, kernel_size=(3, 3, 3), stride=(1, 1, 1), padding=(1, 1, 1))    (conv2): Conv3d(64, 64, kernel_size=(3, 3, 3), stride=(1, 1, 1), padding=(1, 1, 1))  )  (en_down2): DownSampling(    (conv1): Conv3d(64, 128, kernel_size=(3, 3, 3), stride=(2, 2, 2), padding=(1, 1, 1), bias=False)  )  (en_block2_0): EncoderBlock(    (norm1): GroupNorm(8, 128, eps=1e-05, affine=True)    (norm2): GroupNorm(8, 128, eps=1e-05, affine=True)    (actv1): ReLU(inplace=True)    (actv2): ReLU(inplace=True)    (conv1): Conv3d(128, 128, kernel_size=(3, 3, 3), stride=(1, 1, 1), padding=(1, 1, 1))    (conv2): Conv3d(128, 128, kernel_size=(3, 3, 3), stride=(1, 1, 1), padding=(1, 1, 1))  )  (en_block2_1): EncoderBlock(    (norm1): GroupNorm(8, 128, eps=1e-05, affine=True)    (norm2): GroupNorm(8, 128, eps=1e-05, affine=True)    (actv1): ReLU(inplace=True)    (actv2): ReLU(inplace=True)    (conv1): Conv3d(128, 128, kernel_size=(3, 3, 3), stride=(1, 1, 1), padding=(1, 1, 1))    (conv2): Conv3d(128, 128, kernel_size=(3, 3, 3), stride=(1, 1, 1), padding=(1, 1, 1))  )  (en_down3): DownSampling(    (conv1): Conv3d(128, 256, kernel_size=(3, 3, 3), stride=(2, 2, 2), padding=(1, 1, 1), bias=False)  )  (en_block3_0): EncoderBlock(    (norm1): GroupNorm(8, 256, eps=1e-05, affine=True)    (norm2): GroupNorm(8, 256, eps=1e-05, affine=True)    (actv1): ReLU(inplace=True)    (actv2): ReLU(inplace=True)    (conv1): Conv3d(256, 256, kernel_size=(3, 3, 3), stride=(1, 1, 1), padding=(1, 1, 1))    (conv2): Conv3d(256, 256, kernel_size=(3, 3, 3), stride=(1, 1, 1), padding=(1, 1, 1))  )  (en_block3_1): EncoderBlock(    (norm1): GroupNorm(8, 256, eps=1e-05, affine=True)    (norm2): GroupNorm(8, 256, eps=1e-05, affine=True)    (actv1): ReLU(inplace=True)    (actv2): ReLU(inplace=True)    (conv1): Conv3d(256, 256, kernel_size=(3, 3, 3), stride=(1, 1, 1), padding=(1, 1, 1))    (conv2): Conv3d(256, 256, kernel_size=(3, 3, 3), stride=(1, 1, 1), padding=(1, 1, 1))  )  (en_block3_2): EncoderBlock(    (norm1): GroupNorm(8, 256, eps=1e-05, affine=True)    (norm2): GroupNorm(8, 256, eps=1e-05, affine=True)    (actv1): ReLU(inplace=True)    (actv2): ReLU(inplace=True)    (conv1): Conv3d(256, 256, kernel_size=(3, 3, 3), stride=(1, 1, 1), padding=(1, 1, 1))    (conv2): Conv3d(256, 256, kernel_size=(3, 3, 3), stride=(1, 1, 1), padding=(1, 1, 1))  )  (en_block3_3): EncoderBlock(    (norm1): GroupNorm(8, 256, eps=1e-05, affine=True)    (norm2): GroupNorm(8, 256, eps=1e-05, affine=True)    (actv1): ReLU(inplace=True)    (actv2): ReLU(inplace=True)    (conv1): Conv3d(256, 256, kernel_size=(3, 3, 3), stride=(1, 1, 1), padding=(1, 1, 1))    (conv2): Conv3d(256, 256, kernel_size=(3, 3, 3), stride=(1, 1, 1), padding=(1, 1, 1))  )  (de_up2): LinearUpSampling(    (conv1): Conv3d(256, 128, kernel_size=(1, 1, 1), stride=(1, 1, 1))    (conv2): Conv3d(256, 128, kernel_size=(1, 1, 1), stride=(1, 1, 1))  )  (de_block2): DecoderBlock(    (norm1): GroupNorm(8, 128, eps=1e-05, affine=True)    (norm2): GroupNorm(8, 128, eps=1e-05, affine=True)    (actv1): ReLU(inplace=True)    (actv2): ReLU(inplace=True)    (conv1): Conv3d(128, 128, kernel_size=(3, 3, 3), stride=(1, 1, 1), padding=(1, 1, 1))    (conv2): Conv3d(128, 128, kernel_size=(3, 3, 3), stride=(1, 1, 1), padding=(1, 1, 1))  )  (de_up1): LinearUpSampling(    (conv1): Conv3d(128, 64, kernel_size=(1, 1, 1), stride=(1, 1, 1))    (conv2): Conv3d(128, 64, kernel_size=(1, 1, 1), stride=(1, 1, 1))  )  (de_block1): DecoderBlock(    (norm1): GroupNorm(8, 64, eps=1e-05, affine=True)    (norm2): GroupNorm(8, 64, eps=1e-05, affine=True)    (actv1): ReLU(inplace=True)    (actv2): ReLU(inplace=True)    (conv1): Conv3d(64, 64, kernel_size=(3, 3, 3), stride=(1, 1, 1), padding=(1, 1, 1))    (conv2): Conv3d(64, 64, kernel_size=(3, 3, 3), stride=(1, 1, 1), padding=(1, 1, 1))  )  (de_up0): LinearUpSampling(    (conv1): Conv3d(64, 32, kernel_size=(1, 1, 1), stride=(1, 1, 1))    (conv2): Conv3d(64, 32, kernel_size=(1, 1, 1), stride=(1, 1, 1))  )  (de_block0): DecoderBlock(    (norm1): GroupNorm(8, 32, eps=1e-05, affine=True)    (norm2): GroupNorm(8, 32, eps=1e-05, affine=True)    (actv1): ReLU(inplace=True)    (actv2): ReLU(inplace=True)    (conv1): Conv3d(32, 32, kernel_size=(3, 3, 3), stride=(1, 1, 1), padding=(1, 1, 1))    (conv2): Conv3d(32, 32, kernel_size=(3, 3, 3), stride=(1, 1, 1), padding=(1, 1, 1))  )  (de_end): OutputTransition(    (conv1): Conv3d(32, 1, kernel_size=(1, 1, 1), stride=(1, 1, 1))  )  (vae): VAE(    (vd_resample): VDResampling(      (gn1): GroupNorm(8, 256, eps=1e-05, affine=True)      (actv1): ReLU(inplace=True)      (actv2): ReLU(inplace=True)      (conv1): Conv3d(256, 16, kernel_size=(3, 3, 3), stride=(2, 2, 2), padding=(1, 1, 1))      (dense1): Linear(in_features=15360, out_features=256, bias=True)      (dense2): Linear(in_features=128, out_features=122880, bias=True)      (up0): LinearUpSampling(        (conv1): Conv3d(128, 256, kernel_size=(1, 1, 1), stride=(1, 1, 1))        (conv2): Conv3d(128, 256, kernel_size=(1, 1, 1), stride=(1, 1, 1))      )    )    (vd_block2): VDecoderBlock(      (up0): LinearUpSampling(        (conv1): Conv3d(256, 128, kernel_size=(1, 1, 1), stride=(1, 1, 1))        (conv2): Conv3d(256, 128, kernel_size=(1, 1, 1), stride=(1, 1, 1))      )      (block): DecoderBlock(        (norm1): GroupNorm(8, 128, eps=1e-05, affine=True)        (norm2): GroupNorm(8, 128, eps=1e-05, affine=True)        (actv1): ReLU(inplace=True)        (actv2): ReLU(inplace=True)        (conv1): Conv3d(128, 128, kernel_size=(3, 3, 3), stride=(1, 1, 1), padding=(1, 1, 1))        (conv2): Conv3d(128, 128, kernel_size=(3, 3, 3), stride=(1, 1, 1), padding=(1, 1, 1))      )    )    (vd_block1): VDecoderBlock(      (up0): LinearUpSampling(        (conv1): Conv3d(128, 64, kernel_size=(1, 1, 1), stride=(1, 1, 1))        (conv2): Conv3d(128, 64, kernel_size=(1, 1, 1), stride=(1, 1, 1))      )      (block): DecoderBlock(        (norm1): GroupNorm(8, 64, eps=1e-05, affine=True)        (norm2): GroupNorm(8, 64, eps=1e-05, affine=True)        (actv1): ReLU(inplace=True)        (actv2): ReLU(inplace=True)        (conv1): Conv3d(64, 64, kernel_size=(3, 3, 3), stride=(1, 1, 1), padding=(1, 1, 1))        (conv2): Conv3d(64, 64, kernel_size=(3, 3, 3), stride=(1, 1, 1), padding=(1, 1, 1))      )    )    (vd_block0): VDecoderBlock(      (up0): LinearUpSampling(        (conv1): Conv3d(64, 32, kernel_size=(1, 1, 1), stride=(1, 1, 1))        (conv2): Conv3d(64, 32, kernel_size=(1, 1, 1), stride=(1, 1, 1))      )      (block): DecoderBlock(        (norm1): GroupNorm(8, 32, eps=1e-05, affine=True)        (norm2): GroupNorm(8, 32, eps=1e-05, affine=True)        (actv1): ReLU(inplace=True)        (actv2): ReLU(inplace=True)        (conv1): Conv3d(32, 32, kernel_size=(3, 3, 3), stride=(1, 1, 1), padding=(1, 1, 1))        (conv2): Conv3d(32, 32, kernel_size=(3, 3, 3), stride=(1, 1, 1), padding=(1, 1, 1))      )    )    (vd_end): Conv3d(32, 4, kernel_size=(1, 1, 1), stride=(1, 1, 1))  ))Epoch: 0.    Minutes: 3.718Train Loss=0.320845.	Valid Loss=0.171072Train Dice=0.692623.	Valid Dice=0.832771Train Hausdorff=2.154354.	Valid Hausdorff=1.459485Epoch: 1.    Minutes: 3.592Train Loss=0.204345.	Valid Loss=0.164738Train Dice=0.798769.	Valid Dice=0.837561Train Hausdorff=1.587942.	Valid Hausdorff=1.327314Epoch: 2.    Minutes: 3.
…
